gesture_classifier.pth (torch, 115417 bytes, 6 tensors)

net.0.weight f4 [128, 63]
0.25189638 -0.12934338 -1.5902102 0.1209445 -0.056347147 0.26866922 0.05576598 0.04753707
0.034712996 0.113508895 -0.21078771 -0.010520206 0.032534808 -0.3445642 -0.0053693405 0.09045608
-0.13610603 1.0750134 0.06906317 0.0805574 -0.46982667 0.008795166 0.28909492 -0.8137135
0.013649539 0.7369437 -0.5295854 -0.07625588 -0.06465612 1.055958 -0.10474119 -0.07059273
-0.15365104 -0.06471032 0.22526206 -0.2656944 0.042307414 0.3378028 -0.1827858 0.14855337
-0.05549943 0.52974415 0.023444511 -0.046153784 -0.1285724 0.0017610588 0.022425551 -0.150188
0.060857806 0.12589684 0.0629333 0.12678224 -0.10524545 0.0048083565 0.10076844 -0.23091106
-0.10259871 -0.058374535 -0.34562168 -0.06578324 -0.03590683 -0.34716782 0.2093577 -0.14675812
0.2365773 1.4257231 0.051900726 0.038605977 -0.64220726 0.129829 0.07426315 -0.40518394
0.062759 0.010522822 -0.47855198 -0.21126212 0.11135849 -0.7003964 -0.064582944 0.04551297
0.058365807 -0.05984263 -0.2875798 0.29427236 0.14321323 -0.4933956 0.04084937 0.0648187
-0.7246995 -0.043430623 0.0028620532 0.03125008 0.43451294 -0.07601447 -0.1762607 -0.19031976
0.13174933 -0.14176117 -0.18544178 -0.00015831806 -0.17721772 -0.06710406 -0.055874657 0.0259215
0.5619615 -0.07128517 0.100005925 -0.32322818 0.075229526 0.18164593 -0.6019836 -0.09016388
0.018895201 -0.5918693 -0.03049686 0.21200329 0.2985578 0.029763315 -0.010650884 -0.050655786
-0.09737835 0.256833 -0.23307452 -0.13040061 0.1288684 -0.3003891 0.11925942 0.026854739
-0.0678405 -0.07890189 0.022292882 0.01994507 0.013517395 0.088124365 -0.12367333 0.07550007
-0.09512685 -0.004209496 -0.06480515 -0.07676287 0.0487293 -0.06638116 0.03903532 -0.076995365
-0.11200917 0.025656983 0.012359828 -0.06343181 -0.052156895 0.06359398 -0.033925258 0.065907195
0.03288962 -0.004148744 -0.124171056 -0.021206692 -0.050379656 0.0885687 0.058917508 -0.043444693
-0.08839548 -0.01829464 0.033748403 -0.047240846 0.09659028 -0.087899595 0.07960105 -0.102767855
0.02196993 -0.0740653 -0.025025234 0.04557535 -0.044300668 -0.007872805 0.0070916116 -0.10097021
0.06472026 0.068926886 -0.035003215 -0.11720337 0.08326785 -0.0825844 -0.07409007 0.015559554
-0.035145216 0.010621548 0.030207336 0.10148823 0.09219861 0.20174186 -0.018214196 0.67464656
0.23417886 0.13608472 0.652376 0.15938947 0.06727193 0.37829304 -0.014003194 0.23894455
0.039199267 -0.058900043 0.32866943 -0.5556815 0.13354848 0.1531234 0.794711 0.088385016
-0.06188286 0.5678778 0.081463404 0.028848318 0.3493935 0.057785485 0.014904779 0.37201536
0.13421407 0.21210517 -0.27030194 0.059073225 -0.048238676 0.58339953 -0.09879791 -0.35065484
0.089538194 -0.10309002 -0.25270677 -0.29203427 0.0313218 0.027092969 -1.0227306 -0.16586995
-0.086213104 0.13653447 -0.1116386 -0.23666678 -0.69884986 0.019436551 -0.12755373 -1.5556779
0.0139177805 0.06554322 -1.3436134 -0.1706141 0.038556915 -0.62311524 0.022043973 -0.15896405
-1.2371095 -0.051742654 -0.18161404 -1.8876915 -0.036389552 -0.1268332 -0.1395463 -0.16781037
00000000: 90f8 803e 9772 04be 028c cbbf c0b1 f73d
00000010: 44cc 66bd 038f 893e de6a 643d 3bb6 423d
00000020: 372f 0e3d 5a77 e83d bcd8 57be f15c 2cbc
00000030: 3843 053d b86a b0be 4bf1 afbb 0a41 b93d
00000040: 615f 0bbe 0a9a 893f fe70 8d3d 47fb a43d
00000050: 1f8d f0be 9a19 103c 4004 943e 874f 50bf
00000060: 51a2 5f3c 58a8 3c3f e992 07bf 0b2c 9cbd
00000070: 6e6a 84bd a229 873f 8d82 d6bd ec92 90bd
00000080: b356 1dbe d886 84bd 19ab 663e 1909 88be
00000090: 8a4a 2d3d 7df4 ac3e 332c 3bbe 601e 183e
000000a0: 5f53 63bd 509d 073f b40e c03c c00b 3dbd
000000b0: 7ca8 03be 54d3 e63a cab5 b73c e2ca 19be
000000c0: 0946 793d 1aeb 003e 2de3 803d 34d3 013e
000000d0: ed8a d7bd 6b8f 9d3b af5f ce3d f373 6cbe
000000e0: 461f d2bd 231a 6fbd 53f5 b0be 5db9 86bd
000000f0: 0a13 13bd fbbf b1be dd61 563e c347 16be
00000100: 5241 723e 187e b63f db95 543d 4d21 1e3d
00000110: b267 24bf e5f1 043e 4717 983d 4574 cfbe
00000120: ca87 803d ea67 2c3c c404 f5be 1955 58be
00000130: ec0f e43d 2e4d 33bf 1044 84bd cf6b 3a3d
00000140: fc10 6f3d 8c1d 75bd a93d 93be deaa 963e
00000150: 7da6 123e 599e fcbe ab51 273d abbf 843d
00000160: e885 39bf 4fe4 31bd 4991 3b3b 1500 003d
00000170: 7b78 de3e 79ad 9bbd af7d 34be 2fe3 42be
00000180: 4ce9 063e d729 11be 73e4 3dbe 2e02 26b9
00000190: 9078 35be da6d 89bd d3dc 64bd 5359 d43c
000001a0: b5dc 0f3f f6fd 91bd e8cf cc3d 2a7e a5be
000001b0: f011 9a3d 6401 3a3e 991b 1abf d7a7 b8bd
000001c0: 1cca 9a3c bf84 17bf 8dd4 f9bc 6417 593e
000001d0: 91dc 983e 32d2 f33c 0c81 2ebc 717c 4fbd
000001e0: 4d6e c7bd 9d7f 833e 16ab 6ebe bd87 05be
000001f0: 14f6 033e 9acc 99be 483e f43d 78fe db3c
00000200: f6ef 8abd 5097 a1bd 909f b63c d863 a33c
00000210: 1078 5d3c 8c7a b43d 7148 fdbd c89f 9a3d
00000220: ded1 c2bd d0ef 89bb 90b8 84bd da35 9dbd
00000230: 6098 473d d8f2 87bd 80e3 1f3d bfaf 9dbd
00000240: 1065 e5bd 982e d23c e080 4a3c 89e8 81bd
00000250: 78a2 55bd 903d 823d 36f5 0abd 5afa 863d
00000260: 44b7 063d 30f2 87bb 654d febd a8b9 adbc
00000270: e65a 4ebd 8263 b53d 7c53 713d 10f3 31bd
00000280: b008 b5bd a4de 95bc c43b 0a3d 9e7f 41bd
00000290: 20d1 c53d b404 b4bd e005 a33d f477 d2bd
000002a0: 48fa b33c 8caf 97bd b801 cdbc 38ad 3a3d
000002b0: 9e74 35bd f0fc 00bc c060 e83b 78c9 cebd
000002c0: 0e8c 843d 8a29 8d3d 885f 0fbd 5208 f0bd
000002d0: 5688 aa3d 0322 a9bd 89bc 97bd 80ed 7e3c
000002e0: 6ef4 0fbd 0006 2e3c 6075 f73c 10d9 cf3d
000002f0: a0d2 bc3d 6b95 4e3e f035 95bc a3b5 2c3f
00000300: 95cc 6f3e cb59 0b3e 1d02 273f fe36 233e
00000310: dec5 893d a0af c13e a76d 65bc e1ad 743e
00000320: 698f 203d 2c41 71bd 5c47 a83e 2541 0ebf
00000330: efc0 083e 61cc 1c3e 2e72 4b3f 3403 b53d
00000340: e278 7dbd 7160 113f 49d6 a63d 4f53 ec3c
00000350: b4e3 b23e 79b0 6c3d 2d33 743c cc78 be3e
00000360: 6a6f 093e 1932 593e 0465 8abe c4f6 713d
00000370: eb95 45bd ac59 153f 8f56 cabd 0889 b3be
00000380: cd5f b73d dc20 d3bd c862 81be 8485 95be
00000390: 4a4b 003d 13f2 dd3c d6e8 82bf d0d9 29be
000003a0: 7f90 b0bd b1cf 0b3e c7a2 e4bd c758 72be
000003b0: d3e7 32bf 6739 9f3c 729d 02be 7420 c7bf
000003c0: 6707 643c 863b 863d 86fb abbf 76b5 2ebe
000003d0: dbed 1d3d 7b84 1fbf 9095 b43c 79c7 22be
000003e0: 9b59 9ebf 1bf0 53bd 08f9 39be e09f f1bf
000003f0: 360d 15bd 90e0 01be 3ae5 0ebe 7bd6 2bbe

net.0.bias f4 [128]
-0.20925991 0.301729 0.0011341125 -0.14060536 -0.003441042 -0.070822425 -0.12374721 -0.17279463
-0.041230753 0.029796273 0.05863412 -0.0047943853 -0.22486892 -0.0006709233 0.0099909045 0.19801366
-0.11883173 0.014217805 0.020424917 -0.040485162 -0.024930567 0.10643545 0.052353755 -0.0485668
-0.1685342 0.061009437 0.002896619 -0.059843488 0.051769163 0.0010735658 -0.090194225 0.002941434
-0.19565463 -0.21376422 -0.07722117 0.06907537 0.10665091 -0.023035634 -0.28278595 -0.13620533
0.05483689 0.001589328 -0.021095878 0.13133484 0.2598959 0.022635713 -0.32672918 0.17635916
-0.003460206 -0.015782325 -0.06597952 0.008197384 -0.08693523 -0.1814293 -0.12262785 0.098017044
-0.030773945 -0.14154243 0.24414386 0.019214123 0.22797714 -0.07541369 0.04427502 -0.28638566
0.08543404 -0.03066793 -0.20835811 0.12557635 0.021401688 0.034759752 0.13719729 0.10047838
0.08952315 0.12716289 -0.070685394 -0.18773934 0.06310025 -0.0049925908 0.070155516 -0.044509977
0.11923413 -0.11763562 -0.04971997 -0.13263051 0.10719949 0.021989346 -0.22829232 -0.10527176
-0.06615778 0.22817162 -0.1085478 -0.03634221 -0.07457089 0.004997374 0.047445316 -0.0067941695
0.1607976 -0.03410376 0.02538936 0.06882063 0.1116877 -0.10248254 -0.0953208 -0.12693585
0.027946867 -0.14147075 0.05873044 -0.021917969 -0.18061481 -0.047979303 -0.045470513 -0.029550832
0.078329325 -0.14377373 0.12511355 -0.0033553115 -0.049334746 -0.20456229 -0.032268323 0.11101638
-0.0069361376 -0.010311543 -0.15184607 0.11251248 -0.14243978 0.17631087 -0.11058637 -0.12539952
00000000: 3b48 56be 397c 9a3e 80a6 943a dafa 0fbe
00000010: 1b83 61bb 590b 91bd 2d6f fdbd 13f1 30be
00000020: 94e1 28bd 5017 f43c 552a 703d 381a 9dbb
00000030: 0a44 66be e7e0 2fba e4b0 233c 18c4 4a3e
00000040: 0d5e f3bd ccf1 683c 2852 a73c c5d3 25bd
00000050: 303b ccbc d4fa d93d e470 563d fbed 46bd
00000060: 3b94 2cbe 08e5 793d 34d5 3d3b 721e 75bd
00000070: e70b 543d e4b6 8c3a c0b7 b8bd 13c5 403b
00000080: b059 48be 02e5 5abe 2226 9ebd 6377 8d3d
00000090: cb6b da3d 3ab5 bcbc 52c9 90be 6979 0bbe
000000a0: a69c 603d 0051 d03a 43d1 acbc a47c 063e
000000b0: 1311 853e 886e b93c 0c49 a7be 7f97 343e
000000c0: a0c4 62bb ef49 81bc 4520 87bd 524e 063c
000000d0: 190b b2bd 9ac8 39be 4f24 fbbd 29bd c83d
000000e0: a419 fcbc 80f0 10be d900 7a3e f066 9d3c
000000f0: d772 693e 7e72 9abd b959 353d 24a1 92be
00000100: 0bf8 ae3d 503b fbbc d45b 55be 1697 003e
00000110: 9852 af3c 3e60 0e3d 727d 0c3e 9cc7 cd3d
00000120: ea57 b73d fd36 023e 81c3 90bd be3e 40be
00000130: b43a 813d e398 a3bb b2ad 8f3d 1850 36bd
00000140: 0631 f43d f2ea f0bd 2ba7 4bbd 4bd0 07be
00000150: 688b db3d 0023 b43c 76c5 69be b898 d7bd
00000160: bb7d 87bd d2a5 693e 4f4e debd 92db 14bd
00000170: 9fb8 98bd 03c1 a33b 0556 423d a0a1 debb
00000180: 20a8 243e 62b0 0bbd 59fd cf3c d5f1 8c3d
00000190: 85bc e43d 5ee2 d1bd 8d37 c3bd 79fb 01be
000001a0: d4f0 e43c b5dd 10be 548f 703d 508d b3bc
000001b0: 17f3 38be f285 44bd 4a3f 3abd 9614 f2bc
000001c0: 206b a03d 6c39 13be c41d 003e c9e4 5bbb
000001d0: 3b13 4abd c778 51be ca2b 04bd 8e5c e33d
000001e0: 8a48 e3bb bff1 28bc 897d 1bbe f16c e63d
000001f0: bcdb 11be d68a 343e 1b7b e2bd bb68 00be

net.3.weight f4 [128, 128]
-0.0026317267 1.6779555 -0.009670667 0.9306156 -0.0032617953 0.024616487 0.028392443 -0.25621036
-0.024900809 -0.049545377 0.6964678 -0.3087853 0.46748668 0.5545141 -0.11567529 -0.038090404
-0.66165173 0.3368605 0.0039378107 1.4499348 -0.012317099 0.13606669 0.03466692 0.17422326
-0.12216764 0.055660747 0.0012828681 -0.037371624 -0.07192157 -0.070221715 0.37846532 -0.17450662
-0.2708637 -0.027875483 -0.1744613 -0.13114123 0.009184991 -0.05824495 0.5299621 -0.24238448
-0.026866246 -0.019555777 0.011880162 -0.06258921 -0.046505995 -0.06417835 0.009210572 -0.3053612
-0.060271606 0.1362907 -0.027876483 -0.37763613 0.08758607 -0.0366854 0.022246346 0.09182901
-0.012461747 0.13261671 0.022322195 0.08582329 0.004152561 0.066304795 -0.01357936 -0.40868193
0.5009544 -0.18278779 0.11688361 0.08375343 -0.047331806 0.009068951 0.054000735 0.26979715
-0.055265855 0.37657884 0.10799812 -0.1869309 -0.09271902 -0.03429766 -0.027876632 -0.0570662
-0.12432456 -0.1262253 0.090310216 -0.006274474 1.4313538 0.012278207 0.30836415 -0.110617116
0.10827941 0.018800383 -0.1287925 -0.14074628 0.07771552 0.25171915 0.2739888 0.0076071993
-0.03801414 -0.062064067 -0.027563548 -0.033071265 -0.08054214 0.020762593 -0.28138852 -0.051895592
0.04075937 -0.09405507 -0.060678825 0.59233874 -0.10567337 -0.06490271 0.070106514 0.07369797
0.04489911 -0.26627272 0.08219417 0.09907416 -0.013535896 0.33379865 0.005274296 -0.04037821
-0.049913578 -0.015806437 -0.2184872 -0.19329134 -0.39251584 0.3801886 0.03159846 0.026804939
0.37376264 -0.10906257 0.019948997 -0.05115126 0.3588444 -0.013039865 0.037470747 0.8378141
0.04496167 0.04414726 -0.0436983 -0.13812667 0.11742691 -0.07830624 0.8773942 0.102208205
-0.17631479 0.3848455 0.07366335 -0.027452117 0.022490568 0.19916037 -0.028983142 0.2911022
0.9978848 -0.017407196 0.07492047 0.03100417 -0.11407524 0.06716771 0.80727625 0.45185697
-0.050391752 1.3383341 -0.21233496 -0.41419262 0.048517376 0.0035844392 -0.017258229 0.44933084
-0.048335906 0.050954945 0.595816 -0.2671456 0.010371752 -0.074279465 0.15425594 -0.3626335
-0.034348026 0.62462616 0.0469738 -0.30500624 0.058951177 0.43189558 0.0630398 -0.0046013603
0.094204 0.094861746 -0.266994 0.006429419 0.07958611 -0.076092064 -0.036403663 0.9062608
-0.05864221 0.15229589 0.08351146 -0.065504715 0.021779977 -0.047115635 -0.091444865 0.0058049243
-0.085430175 -0.17289104 -0.060378406 0.6755671 -0.36965322 0.007426151 0.023516277 0.055993624
-0.35741723 0.2909678 -0.24734055 -0.08768075 -0.003190438 -0.034250055 -0.07236847 0.18951035
0.17752345 0.2865049 0.6678936 0.07686566 -0.08476782 -0.11426849 -0.010570399 0.08778819
0.30883983 0.06136448 0.032507453 -0.13592796 -0.0043219663 0.052821197 1.1203297 0.013741887
0.46618342 1.197462 -0.00077465177 -0.03472501 0.067792185 -0.11904343 -0.009246737 0.293115
-0.013768495 -0.62943596 0.0793431 0.08736068 0.07468223 0.80358183 0.053800784 -0.041815225
0.023332464 -0.06351988 -0.17540032 0.3491668 0.6988802 0.037661593 0.03237849 0.080793165
00000000: 0c79 2cbb 3fc7 d63f b871 1ebc d33c 6e3f
00000010: d8c3 55bb 84a8 c93c 4597 e83c 012e 83be
00000020: c8fc cbbc 18f0 4abd b74b 323f 1b19 9ebe
00000030: 6a5a ef3e a3f4 0d3f 2be7 ecbd af04 1cbd
00000040: 0262 29bf fb78 ac3e c008 813b 7797 b93f
00000050: a8cd 49bc 1155 0b3e e6fe 0d3d 9567 323e
00000060: 0733 fabd 86fc 633d e925 a83a fd12 19bd
00000070: 9e4b 93bd 67d0 8fbd 35c6 c13e ddb1 32be
00000080: a6ae 8abe 205b e4bc fca5 32be e349 06be
00000090: a57c 163c 4292 6ebd 99ab 073f a333 78be
000000a0: 9a16 dcbc 7033 a0bc 03a5 423c c62e 80bd
000000b0: 127d 3ebd f06f 83bd f0e7 163c 4e58 9cbe
000000c0: 5cdf 76bd ca8f 0b3e 395d e4bc 8659 c1be
000000d0: 5360 b33d 6e43 16bd f83d b63c d910 bc3d
000000e0: 5b2c 4cbc adcc 073e 09dd b63c 1fc4 af3d
000000f0: 3512 883b cfca 873d f77b 5ebc c23e d1be
00000100: 8c3e 003f b92c 3bbe ad60 ef3d eb86 ab3d
00000110: ffde 41bd f095 143c e02f 5d3d da22 8a3e
00000120: 735e 62bd f1ce c03e 1e2e dd3d d06a 3fbe
00000130: 78e3 bdbd b47b 0cbd 895d e4bc 3fbe 69bd
00000140: e09d febd 3441 01be 90f4 b83d 1a9a cdbb
00000150: 9a36 b73f 882a 493c e8e1 9d3e 3a8b e2bd
00000160: 98c1 dd3d 4303 9a3c 2ee2 03be cb1f 10be
00000170: 5129 9f3d 55e1 803e 4348 8c3e d045 f93b
00000180: b7b4 1bbd e436 7ebd f3cc e1bc bc75 07bd
00000190: 47f3 a4bd 5016 aa3c 2812 90be 7990 54bd
000001a0: 4cf3 263d f29f c0bd 5c8a 78bd 83a3 173f
000001b0: 486b d8bd b6eb 84bd 0194 8f3d f6ee 963d
000001c0: 21e8 373d e654 88be 6b55 a83d 65e7 ca3d
000001d0: aac5 5dbc a8e7 aa3e 00d4 ac3b 9f63 25bd
000001e0: 2e72 4cbd 807c 81bc 1cbb 5fbe 2aee 45be
000001f0: d6f7 c8be 15a8 c23e 636d 013d 0896 db3c
00000200: d15d bf3e 325c dfbd 146c a33c fc83 51bd
00000210: 74ba b73e 28a5 55bc ed7a 193d fc7a 563f
00000220: ba29 383d c2d3 343d fdfc 32bd 1471 0dbe
00000230: 857d f03d 065f a0bd e89c 603f 8952 d13d
00000240: dd8b 34be 780a c53e cfdc 963d 43e3 e0bc
00000250: 243e b83c b2f0 4b3e 0e6e edbc 590b 953e
00000260: 6175 7f3f 8999 8ebc e76f 993d 75fc fd3c
00000270: 48a0 e9bd 398f 893d a8a9 4e3f cc59 e73e
00000280: 9567 4ebd 884e ab3f 566e 59be 0e11 d4be
00000290: 28ba 463d e9e8 6a3b 2161 8dbc b10e e63e
000002a0: dffb 45bd 22b6 503d 6687 183f 4fc7 88be
000002b0: 48ee 293c d51f 98bd 45f5 1d3e 19ab b9be
000002c0: 84b0 0cbd 80e7 1f3f 9967 403d c729 9cbe
000002d0: ca76 713d 6b21 dd3e 031b 813d 02c7 96bb
000002e0: 07ee c03d e046 c23d 70b3 88be e0ad d23b
000002f0: 0bfe a23d 28d6 9bbd 021c 15bd b500 683f
00000300: d032 70bd 74f3 1b3e 0e08 ab3d 5627 86bd
00000310: ec6b b23c 53fc 40bd 7247 bbbd 3c37 be3b
00000320: 04f6 aebd 590a 31be 594f 77bd f7f1 2c3f
00000330: 3043 bdbe 1257 f33b 35a5 c03c 9259 653d
00000340: 64ff b6be bbf9 943e d746 7dbe f791 b3bd
00000350: ab16 51bb c949 0cbd ec35 94bd 000f 423e
00000360: b5c8 353e c5b0 923e 13fb 2a3f be6b 9d3d
00000370: c09a adbd 9905 eabd 782f 2dbc 4bca b33d
00000380: 4120 9e3e 5259 7b3d 8926 053d b330 0bbe
00000390: 489f 8dbb 0a5b 583d f766 8f3f a725 613c
000003a0: 98af ee3e 6f46 993f 0012 4bba d03b 0ebd
000003b0: a1d6 8a3d 0bcd f3bd a07f 17bc 2b13 963e
000003c0: 4195 61bc b722 21bf a37e a23d 28ea b23d
000003d0: fff2 983d 8ab7 4d3f 365e 5c3d 7146 2bbd
000003e0: b923 bf3c b616 82bd 249c 33be fec5 b23e
000003f0: d0e9 323f 0b43 1a3d 4f9f 043d e376 a53d

net.3.bias f4 [128]
0.2640599 -0.09987651 0.1766431 0.5716153 0.08571348 -0.35930353 0.088913344 0.08323941
0.5583639 0.10824525 -0.12108614 -0.0764774 0.5185488 0.17470385 -0.36085695 -0.1423351
-0.1231194 0.57673746 -0.024103304 -0.27690992 0.088246174 0.20914727 0.12603596 0.15781395
0.18483809 -0.29570952 -0.19262642 -0.3667529 -0.25856295 0.126881 0.3513621 0.3243161
0.2200153 -0.07675582 0.117238306 0.19508861 -0.12400196 0.2205578 0.025657902 -0.11015672
-0.17993969 0.4479013 0.011869262 0.7141821 0.16546573 0.024688607 0.31186682 0.27370095
-0.07503519 0.046852693 -0.1957987 0.06266122 0.21087448 -0.007726824 -0.01856727 0.03544468
-0.27414224 0.15783441 -0.17608713 0.04040983 0.42757165 -0.0811398 -0.095903896 -0.11451306
-0.12467428 0.15964478 -0.06555189 -0.022474514 -0.035060517 0.07089461 -0.1917443 0.41402164
0.5193013 0.5542505 0.5356199 0.47283995 0.4711061 0.27593145 0.34026816 0.31108943
-0.03961916 0.28955138 0.013510596 0.1534836 -0.0743579 -0.44632155 -0.06903108 0.16822691
-0.029617704 0.46598086 0.00034806613 0.43799725 0.031285353 0.15083061 -0.27635822 0.058747675
0.51557523 0.17271432 0.26544124 0.080733106 0.1647063 0.18466686 -0.08969144 0.49667823
0.4846994 0.44652128 0.40366617 0.0006529566 -0.13040484 0.0749165 0.31713107 -0.06935881
0.40875113 0.07647807 0.1561343 -0.02662552 -0.041592315 0.17237885 0.019869767 0.12849964
0.49977142 -0.11552698 0.16120993 -0.1641051 0.0963493 -0.18558626 0.06531047 0.4534766
00000000: dc32 873e 0e8c ccbd eee1 343e 6155 123f
00000010: 8d8a af3d a2f6 b7be 3318 b63d 6c79 aa3d
00000020: f0f0 0e3f b0af dd3d 03fc f7bd 2fa0 9cbd
00000030: 9dbf 043f 91e5 323e 3ec2 b8be 4bc0 11be
00000040: 0626 fcbd 11a5 133f 4b74 c5bc 23c7 8dbe
00000050: 69ba b43d b42a 563e 920f 013e fb99 213e
00000060: 3246 3d3e 3d67 97be dc3f 45be 09c7 bbbe
00000070: 5d62 84be 18ed 013e bce5 b33e c30c a63e
00000080: b14b 613e 2832 9dbd a31a f03d 4fc5 473e
00000090: bdf4 fdbd e7d9 613e 8530 d23c d999 e1bd
000000a0: 1c42 38be 5253 e53e 4b77 423c a3d4 363f
000000b0: d96f 293e c33f ca3c 02ad 9f3e 8822 8c3e
000000c0: 0dac 99bd 9ce8 3f3d 747f 48be 8754 803d
000000d0: 7bef 573e 4c31 fdbb 631a 98bc 712e 113d
000000e0: 5f5c 8cbe 589f 213e 2f50 34be c784 253d
000000f0: acea da3e a02c a6bd 4369 c4bd d385 eabd
00000100: 3b55 ffbd ec79 233e 1240 86bd 791c b8bc
00000110: 9e9b 0fbd 3131 913d 9e58 44be a5fa d33e
00000120: eef0 043f 5ce3 0d3f 631e 093f 1418 f23e
00000130: d234 f13e e346 8d3e a137 ae3e 1d47 9f3e
00000140: b347 22bd 1440 943e 8c5b 5d3c ce2a 1d3e
00000150: f448 98bd 4284 e4be 2b60 8dbd ad43 2c3e
00000160: d4a0 f2bc 0b95 ee3e a57c b639 2d41 e03e
00000170: 1225 003d 5773 1a3e d37e 8dbe 67a1 703d
00000180: bdfc 033f 06dc 303e eae7 873e 6657 a53d
00000190: c5a8 283e 4f19 3d3e 25b0 b7bd 9c4c fe3e
000001a0: 852a f83e 709e e43e 55ad ce3e 2d2b 2b3a
000001b0: d988 05be d26d 993d 015f a23e fe0b 8ebd
000001c0: d447 d13e 89a0 9c3d ace1 1f3e c31d dabc
000001d0: b45c 2abd 1584 303e ecc5 a23c 6995 033e
000001e0: 0ae2 ff3e 6999 ecbd 3714 253e 2b0b 28be
000001f0: c852 c53d 530a 3ebe 7fc1 853d 162e e83e

net.6.weight f4 [26, 128]
-1.763118 0.13707985 0.055212084 0.009857513 0.023379076 -0.12517335 0.1113143 -0.03255351
-0.21054606 0.0069885207 0.20244263 -0.14047578 0.09570779 0.1290969 0.3139909 -0.034137785
-0.0987605 -1.6908662 0.113414414 0.23412709 0.07378021 -0.116564326 0.1163734 0.030334137
0.103015654 0.06665439 0.12801203 0.21751319 0.15714502 0.21717589 0.18722466 0.16119163
-0.67913324 -0.06406692 -0.21027532 -0.7222675 0.05006359 0.050260235 0.06951541 0.045124892
0.07766077 0.079328015 -0.46144274 0.14795007 -1.1691517 -0.14836842 -0.5041835 -0.5469215
0.18807743 -0.051967334 0.112286024 0.22412111 0.047956955 0.4706835 -0.69565505 0.036831763
0.035270438 -1.4278212 0.36681092 0.10249624 -1.0246946 0.09231628 0.07346039 0.077257216
0.23376256 0.11987812 0.13853626 0.01712676 0.22293079 -0.84474844 -0.54746366 0.07928961
0.014874247 0.26385012 -1.1436309 0.14474365 0.14010713 0.07561131 -1.2195332 -0.8344429
0.17860708 -0.091248654 0.090085454 -0.23413453 -0.58290017 0.24641247 0.12943792 -0.07804239
0.09566607 -1.4654986 -0.06579859 -0.49699858 -0.13865127 0.061809737 0.17605215 -0.7736691
0.095836826 -0.7257035 0.18649945 -0.7919854 0.16906911 0.036023613 -0.013855155 0.08776037
-1.7429601 -0.40510324 -0.69589204 -0.017935982 0.10576153 0.12841363 0.1383 0.16908742
-0.76993686 0.14768937 0.09906102 -0.098905854 0.11006523 -0.6454102 0.11018203 -0.85183257
0.26020104 -0.046424896 0.09549534 0.13206615 0.026669716 0.23417088 0.050428156 -0.2719387
0.076943696 0.17832111 0.2320024 -0.080546826 0.090511605 0.03328306 0.16011031 0.15313388
-1.0639702 0.13975002 0.27177247 0.2124773 -0.40813324 -0.95997405 -0.25676572 0.075128555
0.22770698 0.06507164 -1.3713374 0.13131808 -0.051022056 -0.47508958 -2.2129483 0.19510046
-0.60186607 0.1371953 -1.5029312 0.13387504 -0.36849743 -0.6225739 -0.035696626 -0.8625872
0.04554278 0.025828846 0.14906132 -0.65414643 0.21966207 0.18114255 0.13266267 0.23166342
0.1352725 -0.006698802 0.2797228 -0.84233755 0.045190595 0.44750607 0.090644956 0.15327364
-0.4235861 0.16115147 0.18308915 0.1745513 0.20146146 0.90909684 0.21599929 -0.42036328
0.21831559 0.14095862 0.10720489 -0.23744701 0.21514465 0.037737478 -0.0006290701 -1.0281308
0.23311937 -1.2033185 -1.644058 -0.03630849 -1.8516529 0.036088686 0.16790433 0.10550807
0.034531847 -0.34332907 0.068525076 -0.7658782 -0.44852626 -0.8500719 0.15665387 -0.00336628
0.04662152 0.12636723 -0.37922347 0.15536511 -0.012543907 0.2587283 -1.7551454 0.20174451
0.19972816 0.08546172 0.07744446 0.10408993 -0.38812044 0.21313271 0.011959712 0.06789612
-0.33961812 0.22112122 -0.047655903 0.24763662 0.050985865 0.07048061 0.0023120914 -0.7998397
0.15305872 0.011650829 0.17312455 -1.1395377 0.54737383 -1.7856332 -0.44761056 -0.85876924
0.1205056 -0.350164 -1.3144416 0.15903397 -0.24126606 -0.1103524 -1.8467284 0.09828224
-0.107534684 0.06282777 -0.26434293 0.06041939 -0.07544638 -0.17390405 -0.5848294 -0.08678206
00000000: daad e1bf a95e 0c3e 1126 623d 6881 213c
00000010: 7a85 bf3c 712d 00be c0f8 e33d d456 05bd
00000020: 6399 57be f6ff e43b 1f4d 4f3e e2d8 0fbe
00000030: 7202 c43d fa31 043e 6ac3 a03e 10d4 0bbd
00000040: f242 cabd 4e6e d8bf d145 e83d 03bf 6f3e
00000050: 141a 973d 47b9 eebd 2d55 ee3d 4c7f f83c
00000060: dff9 d23d 1982 883d 9615 033e c7bb 5e3e
00000070: a0ea 203e 5b63 5e3e d2b7 3f3e 6b0f 253e
00000080: addb 2dbf 8435 83bd 6a52 57be 86e6 38bf
00000090: 7b0f 4d3d addd 4d3d 185e 8e3d e1d4 383d
000000a0: 9c0c 9f3d ba76 a23d 3942 ecbe 3980 173e
000000b0: c3a6 95bf e4ed 17be 2b12 01bf 0c03 0cbf
000000c0: 5f97 403e b3db 54bd 37f6 e53d 0180 653e
000000d0: 836e 443d 6dfd f03e 7316 32bf e7dc 163d
000000e0: bc77 103d d8c2 b6bf a4ce bb3e 8ce9 d13d
000000f0: 3129 83bf 5110 bd3d 6772 963d 0839 9e3d
00000100: 745f 6f3e a982 f53d 73dc 0d3e 6b4d 8c3c
00000110: f847 643e 6f41 58bf 9426 0cbf 9762 a23d
00000120: 1db3 733c 5d17 873e 7f62 92bf ae37 143e
00000130: 3e78 0f3e 1ada 9a3d aa19 9cbf 0d9e 55bf
00000140: c6e4 363e 93e0 babd b97e b83d f6c0 6fbe
00000150: f238 15bf 8d53 7c3e 608b 043e b0d4 9fbd
00000160: 93ec c33d 7595 bbbf 69c1 86bd 9976 febe
00000170: 99fa 0dbe 352c 7d3d 0447 343e 2e0f 46bf
00000180: 1946 c43d b4c7 39bf b6f9 3e3e 8ebf 4abf
00000190: 7420 2d3e 7f8d 133d bb00 63bc b5bb b33d
000001a0: 5119 dfbf b169 cfbe fb25 32bf 7bee 92bc
000001b0: 8099 d83d dd7e 033e 849e 0d3e 4125 2d3e
000001c0: 951a 45bf e23b 173e 81e0 ca3d 278f cabd
000001d0: e169 e13d 9a39 25bf 1ea7 e13d b311 5abf
000001e0: 1239 853e 0828 3ebd 1093 c33d 593c 073e
000001f0: 737a da3c 7eca 6f3e c18d 4e3d 8d3b 8bbe
00000200: a894 9d3d cf99 363e 0a92 6d3e bcf5 a4bd
00000210: 265e b93d d153 083d f5f3 233e 21cf 1c3e
00000220: 2d30 88bf a11a 0f3e c325 8b3e a693 593e
00000230: d7f6 d0be dcc0 75bf cc76 83be 00dd 993d
00000240: 052c 693e 4844 853d fc87 afbf 3f78 063e
00000250: 81fc 50bd f13e f3be f2a0 0dc0 6ac8 473e
00000260: e513 1abf ed7c 0c3e 0d60 c0bf 8a16 093e
00000270: b2ab bcbe 0161 1fbf a036 12bd 84d2 5cbf
00000280: 118b 3a3d 0497 d33c 88a3 183e 2476 27bf
00000290: 18ef 603e 6f7d 393e b9d8 073e 2d39 6d3e
000002a0: e084 0a3e a081 dbbb d437 8f3e 6fa3 57bf
000002b0: c619 393d 841f e53e 10a4 b93d c4f3 1c3e
000002c0: 47e0 d8be e404 253e b97b 3b3e 93bd 323e
000002d0: ea4b 4e3e 92ba 683f eb2e 5d3e db39 d7be
000002e0: 1f8e 5f3e 7557 103e 3d8e db3d 4f25 73be
000002f0: e14e 5c3e 9d92 1a3d 2ee8 24ba ca99 83bf
00000300: d8b6 6e3e 5706 9abf 7e70 d2bf 36b8 14bd
00000310: f602 edbf bbd1 133d 1def 2b3e 9d14 d83d
00000320: 4471 0d3d d4c8 afbe e056 8c3d 9810 44bf
00000330: 3ca5 e5be 509e 59bf df69 203e cf9c 5cbb
00000340: 35f6 3e3d 6966 013e 9429 c2be 0818 1f3e
00000350: f684 4dbc 0978 843e 9ba8 e0bf 1d96 4e3e
00000360: 8a85 4c3e 8e06 af3d 339b 9e3d 1a2d d53d
00000370: b9b7 c6be 763f 5a3e abf2 433c 1f0d 8b3d
00000380: 6de2 adbe 9a6d 623e d632 43bd 7494 7d3e
00000390: 8ed6 503d 2358 903d 7586 173b 4bc2 4cbf
000003a0: 6dbb 1c3e 1ee3 3e3c 9047 313e 5fdc 91bf
000003b0: b120 0c3f a18f e4bf 362d e5be 4dd8 5bbf
000003c0: a4cb f63d b248 b3be 9f3f a8bf cdd9 223e
000003d0: 730e 77be 7000 e2bd 9961 ecbf 3348 c93d
000003e0: 253b dcbd d9ab 803d f557 87be 537a 773d
000003f0: a283 9abd e713 32be 61b7 15bf cbba b1bd

net.6.bias f4 [26]
-0.36497688 0.13389792 -0.17639424 -0.43729502 -0.67132187 -0.21162474 -0.14368755 -0.008860183
-0.1588373 -0.36514294 0.21060954 0.19813743 0.09074383 0.14452903 0.31342867 0.14127703
-0.19013782 -0.28816295 0.57636696 0.16775629 0.36520752 0.12332565 0.01170017 0.225064
0.06511439 0.25568554
00000000: 40de babe 891c 093e b1a0 34be 22e5 dfbe
00000010: c0db 2bbf 28b4 58be d422 13be 4d2a 11bc
00000020: 3fa6 22be 04f4 babe 07aa 573e 8ae4 4a3e
00000030: e7d7 b93d 6bff 133e b979 a03e edaa 103e
00000040: 7db3 42be 188a 93be c98c 133f 4ec8 2b3e
00000050: 7bfc ba3e 2992 fc3d 12b2 3f3c 2d77 663e
00000060: b15a 853d 37e9 823e
