gesture_classifier.pth (torch, 104601 bytes, 6 tensors)

net.0.weight f4 [128, 63]
0.12369303 -7.4950854e-05 0.23215221 0.04060068 -0.04956922 -0.18964761 0.018443475 0.1009986
-0.293684 0.08995058 0.047986396 -0.13473412 0.11552685 0.15684105 0.013546105 0.09880587
0.13314466 0.07721135 0.17303042 0.08608899 0.21368591 0.018700002 -0.03887943 0.20140852
-0.038724713 -0.17347176 0.046518225 0.15828705 -0.02626074 0.2184238 0.10413022 -0.010599884
0.05744747 -0.04798803 -0.023683323 0.16915542 0.013568643 -0.2022897 0.05978628 0.050626826
-0.08191436 0.2416994 -0.022082822 -0.10700694 0.22810215 0.13463682 -0.02531214 0.0020941384
0.04938984 -0.0004279925 -0.10714075 -0.0269398 -0.020590127 0.13066638 -0.03629319 -0.17130087
0.23230337 -0.029475264 -0.19589533 -0.116135746 -0.0028692498 -0.08341774 -0.2671756 -0.082821295
0.08727134 -0.30778626 -0.032019116 -0.09689844 -0.03641243 0.08394266 -0.12138299 -0.14873779
-0.052197933 -0.07243312 -0.1271765 -0.01499786 -0.04563054 -0.06584185 -0.051673017 -0.17179143
-0.16413908 -0.03847602 -0.110695146 -0.13119619 0.10164194 0.13184598 -0.18583268 -0.03858961
0.19393589 -0.25363562 -0.046551254 -0.089392155 0.0029993046 -0.009654884 -0.045262534 -0.23403017
-0.07609418 0.10647898 -0.15423873 -0.0070343236 0.25131476 0.04185163 -0.050611734 -0.034262132
-0.10645837 -0.10128925 0.11069617 -0.12561451 0.035347197 0.19348279 0.05089925 0.100980505
0.18981405 0.04426164 -0.011812838 -0.119320095 -0.19696285 0.097109765 -0.042250887 -0.15843685
0.09093624 0.165675 0.10050114 -0.11568373 0.08364385 0.113389365 -0.17099921 0.18363598
0.1656134 -0.09088196 0.08981965 0.113960996 0.01407269 0.11907065 0.2111547 0.07719822
0.099958606 0.22423291 0.042240586 0.094486475 0.23632346 -0.06611278 0.087971285 -0.026303248
-0.047941793 -0.0046816203 0.22246101 -0.10652571 -0.027758641 0.1414021 0.015044937 -0.10149579
0.035215758 0.01612292 0.16580717 -0.06727968 -0.10214093 0.005507261 0.20296209 0.06396248
0.008171352 0.086129114 0.006541159 0.015288001 -0.09446904 0.07737603 0.01978097 -0.20780975
0.053312797 -0.0557338 -0.044423826 -0.12439963 0.02416859 -0.069621734 -0.018794926 -0.06254699
-0.06732117 -0.06308424 0.080713175 -0.061898965 -0.1656977 0.1723677 -0.13871734 0.05655389
0.09492799 -0.027865952 -0.010275827 0.0455031 -0.28507343 -0.17174713 0.21080619 0.22658847
-0.093364075 0.14645769 0.0799464 0.0154309925 0.14806175 0.18557122 0.011460086 0.19007048
0.00011481737 0.049619168 0.08806919 0.07007216 -0.09622448 0.000919665 -0.0022100073 0.015443955
0.14543842 0.08733193 -0.09712709 -0.096156485 0.14848976 0.0040419926 -0.010741727 -0.014683867
-0.029408826 0.030994711 0.040159527 -0.12449214 0.00808779 0.16012177 -0.08534256 0.019684536
-0.027979953 -0.021400176 -0.1956466 0.07976035 -0.043167282 0.11487353 0.045520965 0.05899106
-0.009706977 0.16959569 0.08554634 0.07428017 -0.10192494 0.09731286 -0.17460193 -0.07918031
0.021855557 0.19699246 -0.10362025 -0.12541196 0.18970792 0.027409032 -0.10184503 -0.015418878
-0.09676431 0.08339755 0.0041806875 -0.16943923 -0.040190775 0.117180265 0.02425527 0.060670428
00000000: c552 fd3d ef2e 9db8 4fb9 6d3e e64c 263d
00000010: 1809 4bbd fc32 42be c516 973c 5bd8 ce3d
00000020: c05d 96be 0238 b83d 628d 443d bef7 09be
00000030: 5799 ec3d f19a 203e 7bf0 5d3c bb5a ca3d
00000040: 1357 083e fc20 9e3d e32e 313e 6d4f b03d
00000050: 7bd0 5a3e bf30 993c 0a40 1fbd 093e 4e3e
00000060: ce9d 1ebd 95a2 31be e589 3e3d 0016 223e
00000070: c320 d7bc 7daa 5f3e 3a42 d53d 23ab 2dbc
00000080: 0a4e 6b3d 198f 44bd 8703 c2bc 1437 2d3e
00000090: 034f 5e3c 0825 4fbe 75e2 743d 135e 4f3d
000000a0: b7c2 a7bd 0c80 773e 09e7 b4bc 7426 dbbd
000000b0: 9c93 693e 3cde 093e 685b cfbc d03d 093b
000000c0: 004d 4a3d 2e64 e0b9 9c6c dbbd dbb0 dcbc
000000d0: a0ac a8bc 68cd 053e 2ba8 14bd 7f69 2fbe
000000e0: efe0 6d3e 1c76 f1bc c998 48be 94d8 edbd
000000f0: 060a 3cbb ecd6 aabd 3ecb 88be 369e a9bd
00000100: 51bb b23d 2996 9dbe 7a26 03bd b072 c6bd
00000110: 3325 15bd 21ea ab3d a597 f8bd b84e 18be
00000120: 80cd 55bd d157 94bd 8e3a 02be 96b9 75bc
00000130: 17e7 3abd 18d8 86bd 16a7 53bd 18ea 2fbe
00000140: 1314 28be 0899 1dbd 23b4 e2bd 4b58 06be
00000150: a629 d03d a202 073e ec4a 3ebe 2410 1ebd
00000160: 2197 463e 87dc 81be 87ac 3ebd 3c13 b7bd
00000170: fb8f 443b 852f 1ebc 3565 39bd 9ba5 6fbe
00000180: 44d7 9bbd a711 da3d c2f0 1dbe 2f80 e6bb
00000190: 54ac 803e 9d6c 2b3d 404e 4fbd 7356 0cbd
000001a0: d906 dabd bd70 cfbd acb4 e23d 17a1 00be
000001b0: 39c8 103d 5a20 463e bb7b 503d dece ce3d
000001c0: 9d5e 423e b24b 353d a28a 41bc 185e f4bd
000001d0: a1b0 49be 7ce1 c63d 440f 2dbd 453d 22be
000001e0: c83c ba3d b5a6 293e 8bd3 cd3d 97eb ecbd
000001f0: 784d ab3d af38 e83d 6b1a 2fbe 120b 3c3e
00000200: 8f96 293e 5220 babd 5df3 b73d 6264 e93d
00000210: 2491 663c 50db f33d f038 583e 1a1a 9e3d
00000220: 19b7 cc3d 509d 653e 7704 2d3d 2082 c13d
00000230: c7fe 713e 2366 87bd 4a2a b43d e979 d7bc
00000240: 9d5e 44bd 4768 99bb d2cc 633e 272a dabd
00000250: 1766 e3bc b6cb 103e 0a7f 763c 06dd cfbd
00000260: 663e 103d 3714 843c 5bc9 293e eec9 89bd
00000270: 442f d1bd 4176 b43b 4bd5 4f3e c3fe 823d
00000280: 22e1 053c 7664 b03d 3857 d63b 867a 7a3c
00000290: fc78 c1bd 5377 9e3d b30b a23c 14cc 54be
000002a0: 855e 5a3d 2049 64bd c2f5 35bd 3cc5 febd
000002b0: 35fd c53c d795 8ebd d1f7 99bc a318 80bd
000002c0: aedf 89bd 4f32 81bd f34c a53d c589 7dbd
000002d0: a8ac 29be 2981 303e eb0b 0ebe 0da5 673d
000002e0: 9b69 c23d 2347 e4bc f15b 28bc 7561 3a3d
000002f0: 25f5 91be 7bde 2fbe 94dd 573e cf06 683e
00000300: aa35 bfbd 01f9 153e f0ba a33d 46d2 7c3c
00000310: 809d 173e 6206 3e3e 16c3 3b3c d6a1 423e
00000320: 1bca f038 783d 4b3d 9f5d b43d fe81 8f3d
00000330: 5711 c5bd ac15 713a c5d5 10bb a408 7d3c
00000340: cfed 143e 15db b23d 91ea c6bd b1ed c4bd
00000350: b30d 183e b172 843b 12fe 2fbc 9a94 70bc
00000360: c7ea f0bc 9fe8 fd3c 517e 243d bcf5 febd
00000370: a682 043c f6f6 233e 15c8 aebd 7741 a13c
00000380: 3736 e5bc 6c4f afbc 9557 48be 6559 a33d
00000390: 2dd0 30bd d042 eb3d 3174 3a3d 9ca0 713d
000003a0: 030a 1fbc 7eaa 2d3e eb32 af3d 3420 983d
000003b0: 06be d0bd f74b c73d d9ca 32be 4929 a2bd
000003c0: 6d0a b33c 64b8 493e db36 d4bd fe6b 00be
000003d0: cb42 423e e888 e03c 2194 d0bd 769f 7cbc
000003e0: 5e2c c6bd 56cc aa3d 26fe 883b 7a81 2dbe
000003f0: 159f 24bd 35fc ef3d fdb2 c63c 8e81 783d

net.0.bias f4 [128]
0.090629615 -0.019882241 0.03011275 -0.048238732 0.12102207 0.050274387 0.0060466677 -0.08839944
0.09475986 -0.07852565 0.08713587 0.075688414 -0.0126076145 -0.014522909 0.016999286 -0.028891668
0.086078726 -0.1338534 0.12666638 -0.10375257 0.03595461 0.07776712 0.115620434 0.045835536
0.083658054 -0.07353234 0.1168473 -0.05579655 -0.0965479 0.013047099 -0.072679505 0.0028423315
-0.113024555 0.1232659 0.070990585 -0.016833078 -0.13269404 -0.019196426 0.06039399 -0.011644021
-0.052210033 0.12836972 -0.10456091 0.19983874 0.020380333 -0.053121608 -0.015421305 0.124325365
-0.016505875 0.05664799 -0.07579939 0.0069786743 -0.0999606 -0.0631626 -0.08067543 -0.015215833
0.01231381 0.075393215 0.07817127 -0.07710121 0.056899313 -0.075880244 0.13889806 -0.07356284
-0.056729488 -0.019110784 -0.17434378 -0.12265467 -0.03300906 0.11066316 0.112613074 0.00012785196
-0.06548698 -0.021722069 -0.026651168 0.08407246 -0.08273645 -0.07695469 -0.1132076 0.120774955
-0.1175181 -0.06431075 0.026258096 0.06644423 -0.044785984 -0.037305318 0.11199695 -0.04428865
0.077222496 -0.11358444 0.022938833 0.060688496 -0.12466568 -0.06870732 0.009272223 0.11245409
0.020286579 -0.029645994 -0.01286847 -0.007556391 -0.024435893 0.06384468 0.14067033 0.11573204
0.12953307 0.07272345 0.11047597 -0.09884744 -0.0919014 -0.0886217 0.016398028 -0.046474073
0.07950411 0.0061061177 0.059332017 -0.010295317 0.017418638 -0.122504264 -0.08362149 0.10462201
-0.095386095 -0.04343532 0.011096431 0.089423925 0.03274171 0.09586157 -0.06763309 0.031265162
00000000: 059c b93d 15e0 a2bc 04af f63c fa95 45bd
00000010: 6bda f73d 84ec 4d3d 2023 c63b c40a b5bd
00000020: 7511 c23d 0ed2 a0bd 4a74 b23d 8702 9b3d
00000030: 2b90 4ebc 7ff1 6dbc 1642 8b3c 38ae ecbc
00000040: 0b4a b03d de10 09be d5b4 013e 3a7c d4bd
00000050: 2445 133d 5e44 9f3d 68ca ec3d 0bbe 3b3d
00000060: ea54 ab3d 2098 96bd a34d ef3d ec8a 64bd
00000070: e8ba c5bd 80c3 553c fed8 94bd 6946 3a3b
00000080: 6b79 e7bd d572 fc3d 8363 913d 86e5 89bc
00000090: f2e0 07be d341 9dbc b05f 773d 90c6 3ebc
000000a0: 30da 55bd 5a73 033e 0824 d6bd 87a2 4c3e
000000b0: a8f4 a63c 0b96 59bd a4a9 7cbc 4c9e fe3d
000000c0: 5437 87bc b907 683d b63c 9bbd 5dad e43b
000000d0: 25b8 ccbd 655b 81bd 2939 a5bd d44b 79bc
000000e0: ddbf 493c c267 9a3d 4218 a03d 3de7 9dbd
000000f0: 410f 693d 1a67 9bbd 4b3b 0e3e 1da8 96bd
00000100: 2e5d 68bd 388e 9cbc 2d87 32be 5f32 fbbd
00000110: 8234 07bd 5ea3 e23d afa1 e63d 0010 0639
00000120: 0a1e 86bd 7bf2 b1bc 8d53 dabc 2f2e ac3d
00000130: ba71 a9bd 6c9a 9dbd 63d9 e7bd dc58 f73d
00000140: 54ad f0bd 5bb5 83bd 381b d73c ea13 883d
00000150: 8271 37bd 76cd 18bd a85e e53d 0468 35bd
00000160: d426 9e3d f59e e8bd 38ea bb3c 8094 783d
00000170: b850 ffbd 6cb6 8cbd 86ea 173c 544e e63d
00000180: 0a30 a63c 28dc f2bc 46d6 52bc 9a9b f7bb
00000190: c82d c8bc 00c1 823d e20b 103e eb04 ed3d
000001a0: 51a4 043e 08f0 943d 3a41 e23d 8770 cabd
000001b0: cd36 bcbd 4b7f b5bd 2855 863c 995b 3ebd
000001c0: 0dd3 a23d d415 c83b 2106 733d b0ad 28bc
000001d0: 88b1 8e3c 84e3 fabd be41 abbd 1044 d63d
000001e0: c959 c3bd 3ce9 31bd cecd 353c e423 b73d
000001f0: 2c1c 063d 1253 c43d 3883 8abd e60f 003d

net.3.weight f4 [128, 128]
-0.011812444 0.17335823 0.01908592 -0.0052908342 0.027827544 -0.0703092 -0.058528695 -0.033409633
-0.18534754 -0.046126045 0.10326139 -0.020359946 -0.15591294 -0.011081925 -0.025224723 0.067206465
0.11510031 -0.012886579 0.24682954 -0.04794246 -0.061653085 0.13904397 0.056381874 0.06451412
-0.04685369 -0.076868795 -0.0032302164 0.0012556094 -0.038948797 -0.02475518 -0.05155882 0.02711852
-0.13588446 0.23861514 -0.017508779 0.15155932 -0.058927104 0.050947897 0.09809574 0.08750353
-0.03013606 0.03796171 -0.031336393 -0.080906935 -0.0052824765 0.028363142 -0.042348348 0.14021455
-0.042079985 -0.0068979766 -0.16691557 -0.0037496765 0.055965893 -0.008382469 0.013385694 -0.05479912
0.05751367 -0.009351338 0.05294344 -0.011469438 0.04550593 -0.053963747 -0.001921412 0.02376918
-0.026225202 -0.08039421 -0.06815938 -0.056702156 -0.013902706 0.020091414 -0.027027098 -0.0055950284
0.07632617 0.14935347 -0.035317734 -0.08202465 -0.009213862 -0.07763159 0.02382175 -0.08334926
0.06831416 -0.123377174 0.03750622 -0.06804594 -0.005834226 -0.010606162 0.08217939 0.00045008596
-0.174964 0.09831424 -0.14575292 -0.041784268 0.07642927 0.027231134 -0.05872013 -0.02389735
-0.22599505 -0.034895852 0.04723326 0.04161137 -0.018794492 0.0764061 0.04671325 -0.027193353
0.08002359 0.08241455 0.103622906 0.0036577284 -0.039102685 -0.0046306173 -0.01371453 -0.0585416
0.066256665 -0.100658335 -0.09291111 -0.061798066 -0.069821015 0.02038882 -0.026621379 -0.030376665
0.07516923 -0.07470839 0.1826122 0.0574944 0.050881185 0.0015036212 -0.055260934 0.13264523
-0.009815641 0.087805174 -0.07649283 -0.15214518 0.07513169 -0.10049571 -0.0759785 0.05874657
-0.07880601 -0.0048736557 0.08419588 0.13396764 -0.06382851 -0.036141567 -0.14910571 0.03512609
0.09708547 -0.12250906 0.102181986 0.05701115 -0.0072510466 -0.1247547 -0.01592673 -0.054933738
-0.08251784 0.053591065 0.11363514 0.078646615 0.033025216 0.013414003 0.031232648 -0.00828965
-0.093390204 0.17446822 0.0026664794 0.1615444 0.0047177337 0.04762066 -0.0047134133 0.050970547
0.07916283 0.07750575 0.027095966 -0.19747809 0.04708519 0.024405902 -0.06962514 0.16346586
-0.08823288 0.013526661 -0.041346587 0.08743637 -0.03500905 0.079515524 -0.02308415 0.07106178
0.004584281 0.017620308 0.00040641156 0.114736706 -0.057681978 -0.27488288 -0.106430806 0.0041735456
0.0582925 0.07796394 -0.03467012 -0.080620684 0.09114767 0.039579175 -0.044110306 0.016771749
0.06474955 0.12492735 0.003862214 -0.06326363 0.03342297 -0.017274812 -0.018071298 -0.029980708
-0.00034148246 -0.04681849 0.030122243 -0.19371726 -0.0135335075 -0.08238313 0.15420777 0.006851579
0.007384373 0.17294624 -0.11756857 -0.06806968 0.06322376 -0.022278652 -0.030611191 -0.08172185
0.038443815 -0.076734915 0.02729782 0.0895333 0.013162628 0.058710374 0.05524475 -0.12839451
0.043089133 -0.10736593 -0.056896716 -0.0133937225 0.08223901 -0.05420119 0.040463872 0.087826155
0.1042967 -0.120320626 0.094100595 0.026210882 0.059467353 0.027296849 0.052675705 0.07352386
-0.054257546 0.07777565 0.1323455 -0.08000794 0.0041943938 0.08164669 0.005973883 0.14725746
00000000: fb88 41bc d284 313e 135a 9c3c bc5e adbb
00000010: 97f6 e33c 45fe 8fbd c9bb 6fbd 8ad8 08bd
00000020: bfcb 3dbe aaee 3cbd b57a d33d e7c9 a6bc
00000030: a4a7 1fbe f690 35bc 14a4 cebc 8ba3 893d
00000040: b6b9 eb3d 3b22 53bc e2c0 7c3e 505f 44bd
00000050: f287 7cbd 8b61 0e3e aef0 663d fb1f 843d
00000060: a8e9 3fbd 636d 9dbd 0ab2 53bb 4393 a43a
00000070: c688 1fbd 60cb cabc 572f 53bd a927 de3c
00000080: 4c25 0bbe 8757 743e 926e 8fbc 5e32 1b3e
00000090: 8c5d 71bd beae 503d 6be6 c83d 0d35 b33d
000000a0: e6df f6bc bd7d 1b3d 975a 00bd 89b2 a5bd
000000b0: a018 adbb d259 e83c 7675 2dbd 6794 0f3e
000000c0: 105c 2cbd 6c08 e2bb eaeb 2abe 22bd 75bb
000000d0: 7e3c 653d a056 09bc ab4f 5b3c 0b75 60bd
000000e0: 7493 6b3d 5b36 19bc 38db 583d 4fea 3bbc
000000f0: 6d64 3a3d 1709 5dbd e3d7 fbba 95b7 c23c
00000100: 3cd6 d6bc b8a5 a4bd 2597 8bbd 8540 68bd
00000110: 2dc8 63bc c096 a43c ef67 ddbc 8056 b7bb
00000120: e550 9c3d 1ef0 183e 54a9 10bd 8afc a7bd
00000130: bdf5 16bc 50fd 9ebd d525 c33c 04b3 aabd
00000140: 4be8 8b3d 2cad fcbd 1fa0 193d ab5b 8bbd
00000150: 092d bfbb 78c5 2dbc ab4d a83d 84f9 eb39
00000160: c329 33be fa58 c93d 4140 15be fb25 2bbd
00000170: f386 9c3d d413 df3c 8584 70bd 60c4 c3bc
00000180: 3f6b 67be f4ee 0ebd aa77 413d af70 2a3d
00000190: e8f6 99bc cd7a 9c3d 6556 3f3d 98c4 debc
000001a0: 68e3 a33d f6c8 a83d 3f38 d43d 80b6 6f3b
000001b0: 232a 20bd 6fbc 97bb e8b2 60bc 51c9 6fbd
000001c0: 93b1 873d f525 cebd 2e48 bebd f81f 7dbd
000001d0: 52fe 8ebd 7406 a73c 1415 dabc 7cd8 f8bc
000001e0: 53f2 993d b600 99bd b1fe 3a3e 3f7f 6b3d
000001f0: ca68 503d 2815 c53a 4a59 62bd 27d4 073e
00000200: c8d1 20bc 33d3 b33d 46a8 9cbd f2cb 1bbe
00000210: a5de 993d b2d0 cdbd 9e9a 9bbd 3ea0 703d
00000220: 0c65 a1bd 30b3 9fbb e46e ac3d d02e 093e
00000230: 86b8 82bd 2e09 14bd 2baf 18be 60e0 0f3d
00000240: bfd4 c63d 08e6 fabd ca44 d13d 8684 693d
00000250: 309a edbb 647f ffbd c678 82bc 3302 61bd
00000260: 1dff a8bd 4e82 5b3d 8ab9 e83d 7a11 a13d
00000270: 7345 073d 68c6 5b3c 9cdb ff3c 50d1 07bc
00000280: 5d43 bfbd cca7 323e 1ac0 2e3b e56b 253e
00000290: 3897 9a3b e20d 433d fa72 9abb 7ec6 503d
000002a0: 1f20 a23d 56bb 9e3d 5cf8 dd3c b237 4abe
000002b0: 66dc 403d e3ee c73c a097 8ebd 9863 273e
000002c0: 71b3 b4bd ee9e 5d3c 0a5b 29bd d711 b33d
000002d0: a665 0fbd 09d9 a23d f91a bdbc d788 913d
000002e0: bc37 963b 7758 903c a313 d539 14fb ea3d
000002f0: f043 6cbd 73bd 8cbe 65f8 d9bd 3dc2 883b
00000300: 1ec4 6e3d 8fab 9f3d 4102 0ebd 751c a5bd
00000310: a1ab ba3d c61d 223d 02ad 34bd e864 893c
00000320: 699b 843d e9d9 ff3d 331d 7d3b 5d90 81bd
00000330: 86e6 083d e883 8dbc 420a 94bc 1a9a f5bc
00000340: 0009 b3b9 bfc4 3fbd ecc2 f63c d15d 46be
00000350: a5bb 5dbc 7db8 a8bd a4e8 1d3e 3683 e03b
00000360: 9cf8 f13b d218 313e cac7 f0bd 1e68 8bbd
00000370: 757b 813d b881 b6bc 52c4 fabc c95d a7bd
00000380: 4377 1d3d 3227 9dbd ae9f df3c 3c5d b73d
00000390: 10a8 573c 4a7a 703d 5248 623d da79 03be
000003a0: 3b7e 303d abe2 dbbd 880c 69bd 5871 5bbc
000003b0: ed6c a83d 1102 5ebd 72bd 253d 33de b33d
000003c0: 8299 d53d a96a f6bd d0b7 c03d 34b8 d63c
000003d0: 0a94 733d a49d df3c 7bc2 573d ad93 963d
000003e0: 293d 5ebd d748 9f3d 9485 073e 34db a3bd
000003f0: 2071 893b 6136 a73d 90c0 c33b a9ca 163e

net.3.bias f4 [128]
0.09206817 0.010784899 0.11051737 0.048224337 -0.007917517 -0.0850374 0.0704971 0.050142977
0.008289641 0.08808656 -0.016824655 0.1033976 -0.06472954 0.03507467 0.047731847 -0.0008370477
0.07816605 -0.010533662 0.061561875 0.03021368 -0.02716068 0.0994041 -0.022647565 0.039410908
0.0027675403 -0.027615087 0.013969056 0.059153523 -0.004672356 -0.057385735 0.081218325 -0.10266235
0.09026712 -0.02154 0.023991423 0.0692812 0.09067958 0.041683808 -0.004525101 0.10536428
0.0057579656 -0.12648275 0.014485646 0.16180079 0.063075215 0.091099635 0.111735426 -0.04051211
-0.05135825 -0.05278604 0.03430734 0.075108536 0.00076059165 0.05139274 0.029542906 -0.07967634
0.10858092 -0.08044086 0.07710817 0.05578941 0.008827438 0.057234608 0.027962277 0.08527215
0.032845303 0.05447068 0.024782266 0.076426335 0.107718155 0.031184258 -0.052643184 -0.050060056
0.109279804 0.07571831 -0.065211296 0.002701671 0.06690936 -0.06945614 0.06270933 0.10763893
0.05079722 0.118174836 0.063249044 -0.07761325 0.1118745 0.081868134 0.1572036 0.042520363
-0.028219124 0.15285045 0.022199884 -0.032882143 0.0033842153 0.12759547 -0.033755988 -0.02039891
0.016558222 -0.0044696415 0.08393737 0.12602152 0.033438597 -0.004222383 0.051463015 0.091969036
0.045869205 0.10100533 0.005946302 0.115712225 0.093024015 -0.019874709 -0.021147853 -0.061154775
0.05019615 -0.04679099 0.0425507 0.12935446 -0.008770317 0.071002945 0.107435666 -0.012515406
-0.037655316 0.039398715 0.06560273 -0.009757854 -0.051157724 0.01275736 0.04620137 0.068465516
00000000: 3d8e bc3d 25b3 303c ee56 e23d e286 453d
00000010: 79b8 01bc 1728 aebd c960 903d b962 4d3d
00000020: 46d1 073c ba66 b43d dcd3 89bc 1fc2 d33d
00000030: ec90 84bd 75aa 0f3d 7882 433d 526d 5bba
00000040: 8615 a03d 6195 2cbc 4e28 7c3d ae82 f73c
00000050: 1380 debc 6094 cb3d 6387 b9bc 556d 213d
00000060: 9f5f 353b 0939 e2bc 78de 643c f74a 723d
00000070: 901a 99bb 4e0d 6bbd cb55 a63d a340 d2bd
00000080: f8dd b83d a774 b0bc a989 c43c 4de3 8d3d
00000090: 37b6 b93d a4bc 2a3d 4c47 94bb 3ac9 d73d
000000a0: 51ad bc3b b284 01be 3455 6d3c 1baf 253e
000000b0: 942d 813d 7292 ba3d 8bd5 e43d 07f0 25bd
000000c0: 075d 52bd 2d36 58bd da85 0c3d 81d2 993d
000000d0: 7162 473a 3281 523d f703 f23c 592d a3bd
000000e0: ac5f de3d 2dbe a4bd e3ea 9d3d 7083 643d
000000f0: f5a0 103c d66e 6a3d 2511 e53c 2aa3 ae3d
00000100: cc88 063d a61c 5f3d 2e04 cb3c 6985 9c3d
00000110: 569b dc3d 2176 ff3c 61a0 57bd c60b 4dbd
00000120: 17ce df3d 3412 9b3d 808d 85bd 850e 313b
00000130: c607 893d 053f 8ebd c06d 803d cd71 dc3d
00000140: bf10 503d a605 f23d b788 813d b2f3 9ebd
00000150: 751e e53d 7baa a73d fbf9 203e d529 2e3d
00000160: cb2b e7bc d484 1c3e 88dc b53c 6daf 06bd
00000170: b6c9 5d3b 63a8 023e b843 0abd 9d1b a7bc
00000180: 1ca5 873c 1276 92bb 5be7 ab3d c90b 013e
00000190: e9f6 083d ea5b 8abb e2ca 523d 435a bc3d
000001a0: 59e1 3b3d e2db ce3d 32d9 c23b 88fa ec3d
000001b0: 6083 be3d 49d0 a2bc 433e adbc 6e7d 7abd
000001c0: 7a9a 4d3d e9a7 3fbd a549 2e3d 7f75 043e
000001d0: 60b1 0fbc fe69 913d 3b07 dc3d 6b0d 4dbc
000001e0: 763c 1abd 8c60 213d b95a 863d 68df 1fbc
000001f0: c38a 51bd 3f04 513c a63d 3d3d a637 8c3d

net.6.weight f4 [5, 128]
-0.14325303 -0.14043203 0.105545565 0.06511001 0.013732865 -0.046478473 -0.03954053 0.10521622
-0.15587465 0.05656961 0.2127979 0.20444669 0.22195376 0.1029319 0.022020346 -0.052655686
0.117899746 0.1705983 -0.13143192 -0.14151949 0.13739012 0.106120974 -0.23051406 -0.11397658
0.017050432 -0.15836824 -0.03012571 0.05572596 -0.20175949 0.117060386 0.11012091 -0.021967689
0.13344887 -0.086923026 0.17419419 -0.08602615 -0.04699721 0.09977112 0.034470636 0.06335137
-0.0062053604 0.05581048 -0.040817067 0.037958827 0.13658588 -0.1568915 -0.03776046 0.14274609
0.063696876 -0.113874465 -0.15838273 0.032182034 -0.16678126 -0.1238986 0.16640362 -0.019565059
-0.08160041 -0.030870236 0.029688159 0.12590997 -0.08507485 -0.07106824 0.07637883 0.1886809
-0.008474991 0.07063103 -0.1056052 0.006312625 0.108220495 0.041360006 0.1358006 -0.18656744
-0.102516554 -0.08578807 0.004407888 0.078686096 0.16867 0.16748755 -0.038092617 -0.14629224
0.09569755 -0.042631544 0.061502002 0.016498616 -0.16261442 -0.1917383 -0.07131355 0.007321484
-0.04780984 0.08513808 -0.16021544 0.11923225 0.07177303 0.1260632 -0.013274037 -0.038480174
0.010521045 -0.15794408 -0.23165798 -0.10240812 0.032682832 -0.08535274 -0.12238408 -0.20459677
-0.048861396 0.062459525 -0.107023805 0.09486232 -0.0048015867 -0.17602338 0.07038082 -0.06995242
0.10978909 -0.059830476 -0.09387582 -0.09048059 0.091012195 0.087697774 0.1291053 -0.18934351
0.083095506 -0.009848297 -0.1263737 -0.05189954 0.13323173 -0.1285142 0.17193231 0.11341901
-0.046490863 0.09191693 0.04924306 -0.058722343 0.03055617 0.040721368 -0.11614339 -0.07461557
0.13357142 -5.128503e-05 -0.14582475 -0.26751935 -0.1251854 -0.061657496 0.049448766 -0.0238238
-0.04682775 -0.01958895 0.123678625 0.26168597 -0.10087806 -0.15539497 0.102390625 -0.1001667
0.12809189 -0.13047934 -0.08429415 0.08571226 0.016611552 -0.2635585 -0.14488941 -0.024545938
-0.1061289 0.1038927 0.03240325 -0.016286494 0.11122847 -0.16294931 -0.1759212 -0.024844302
0.12139591 0.06268523 -0.063659355 -0.19932763 0.1450641 0.07263734 0.082755305 0.065093145
0.09881841 0.08757068 0.1547566 -0.21641456 0.09606625 0.08074851 -0.014022992 -0.074449934
0.115904875 -0.0019087578 -0.17676485 0.09577425 0.1364698 0.24189071 -0.04379972 -0.24182971
0.06495557 0.124158405 0.02945462 -0.0032755872 0.03985187 0.11401549 -0.10763659 0.19391888
-0.08051369 0.17225452 0.058153067 -0.17739047 -0.044479 -0.006742703 -0.026061963 0.08438043
0.052320868 -0.029640019 0.008094646 -0.017092548 0.0095874015 -0.029970912 -0.068724826 -0.15215972
-0.016547674 -0.1857308 0.13810791 0.05227673 0.11653429 -0.11956275 0.010179763 0.048065215
0.11792475 0.06769899 0.12473694 0.050001375 -0.16270344 -0.15658745 -0.04777328 0.029268498
-0.10415587 0.06919387 0.14864777 -0.06311149 -0.08584262 0.20172319 0.12737772 0.24731138
-0.13309829 0.04998871 -0.09660499 0.003991621 -0.008379692 -0.06064109 -0.09241418 0.064071044
-0.18085732 -0.17355093 0.12358993 -0.06416531 -0.08621126 -0.06522005 -0.093493 -0.02886951
00000000: ecb0 12be 6acd 0fbe 4628 d83d 6658 853d
00000010: d0ff 603c 3660 3ebd 40f5 21bd 9a7b d73d
00000020: 9b9d 1fbe 89b5 673d b1e7 593e 795a 513e
00000030: d947 633e f6cd d23d 0364 b43c 7dad 57bd
00000040: 6c75 f13d 52b1 2e3e 1796 06be 7cea 10be
00000050: ffaf 0c3e f455 d93d e10b 6cbe 8e6c e9bd
00000060: 59ad 8b3c 492b 22be 31ca f6bc e740 643d
00000070: 0a9a 4ebe 5bbd ef3d 1287 e13d 95f5 b3bc
00000080: d2a6 083e b304 b2bd f65f 323e 7a2e b0bd
00000090: 2580 40bd cd54 cc3d 1531 0d3d 5dbe 813d
000000a0: 5656 cbbb 8899 643d cc2f 27bd b77a 1b3d
000000b0: 2bdd 0b3e 2aa8 20be b6aa 1abd 082c 123e
000000c0: 8273 823d 0437 e9bd 152f 22be 4fd1 033d
000000d0: b5c8 2abe 8dbe fdbd b665 2a3e e746 a0bc
000000e0: 1e1e a7bd 94e3 fcbc 9534 f33c 8bee 003e
000000f0: b93b aebd 3a8c 91bd 816c 9c3d 9135 413e
00000100: b0da 0abc 00a7 903d 8a47 d8bd 23da ce3b
00000110: b5a2 dd3d 1c69 293d 500f 0b3e 890b 3fbe
00000120: 33f4 d1bd a8b1 afbd 0b70 903b 2d26 a13d
00000130: d4b7 2c3e db81 2b3e 0107 1cbd a2cd 15be
00000140: 14fd c33d 6a9e 2ebd 86e9 7b3d 1b28 873c
00000150: 6584 26be 0b57 44be d70c 92bd 0fe9 ef3b
00000160: 40d4 43bd e05c ae3d 840f 24be 0a30 f43d
00000170: bdfd 923d b616 013e 597b 59bc 639d 1dbd
00000180: 7660 2c3c 18bc 21be c037 6dbe 59bb d1bd
00000190: 6fde 053d 6bcd aebd 81a4 fabd d181 51be
000001a0: e322 48bd 8fd5 7f3d 4c2f dbbd 2d47 c23d
000001b0: a156 9dbb 793f 34be d223 903d 3743 8fbd
000001c0: 1ad9 e03d cd10 75bd f741 c0bd e34d b9bd
000001d0: 9a64 ba3d e49a b33d 2e34 043e 44e3 41be
000001e0: fa2d aa3d c05a 21bc 1b68 01be 9d94 54bd
000001f0: e66d 083e 3a99 03be 060f 303e 3a48 e83d
00000200: 346d 3ebd f23e bc3d 17b3 493d d786 70bd
00000210: ef50 fa3c 73cb 263d 96dc edbd 0cd0 98bd
00000220: f2c6 083e e21a 57b8 1553 15be 4cf8 88be
00000230: 9a30 00be 928c 7cbd ca8a 4a3d 212a c3bc
00000240: 74ce 3fbd 0179 a0bc 384b fd3d b4fb 853e
00000250: 2899 cebd dc1f 1fbe 2db2 d13d 3324 cdbd
00000260: 852a 033e 609c 05be 69a2 acbd e989 af3d
00000270: f314 883c 24f1 86be e45d 14be 9014 c9bc
00000280: 1c5a d9bd b2c5 d43d 45b9 043d 416b 85bc
00000290: c1cb e33d 2fdc 26be b024 34be 4786 cbbc
000002a0: 6b9e f83d 1d61 803d d65f 82bd 8b1c 4cbe
000002b0: af8b 143e e3c2 943d 9d7b a93d 8e4f 853d
000002c0: 4e61 ca3d 4258 b33d 8478 1e3e c79b 5dbe
000002d0: 62be c43d 7a5f a53d b1c0 65bc 3579 98bd
000002e0: 895f ed3d 492f faba d801 35be 4a25 c43d
000002f0: bdbe 0b3e 33b2 773e 5667 33bd 35a2 77be
00000300: 6d07 853d c346 fe3d d14a f13c 3cab 56bb
00000310: b73b 233d f480 e93d 9370 dcbd ac92 463e
00000320: 5de4 a4bd 7d63 303e e931 6e3d d9a5 35be
00000330: 9d2f 36bd e4f1 dcbb e67f d5bc a6cf ac3d
00000340: 684e 563d a0cf f2bc 689f 043c ac05 8cbc
00000350: 7a14 1d3c 8f85 f5bc 9abf 8cbd c2cf 1bbe
00000360: fd8e 87bc 3730 3ebe 296c 0d3e 2020 563d
00000370: 88a9 ee3d 51dd f4bd 05c9 263c 08e0 443d
00000380: 8882 f13d c5a5 8a3d 1576 ff3d 3ece 4c3d
00000390: bb9b 26be 7658 20be eaad 43bd 7dc4 ef3c
000003a0: ac4f d5bd 84b5 8d3d 1f37 183e 9940 81bd
000003b0: 41ce afbd 8690 4e3e 4e6f 023e 323f 7d3e
000003c0: eb4a 08be f6c0 4c3d d6d8 c5bd 25cc 823b
000003d0: fa4a 09bc cb62 78bd a543 bdbd ae37 833d
000003e0: a932 39be 56b7 31be b81c fd3d 1a69 83bd
000003f0: 878f b0bd 1792 85bd 4279 bfbd c07f ecbc

net.6.bias f4 [5]
-0.01644888 0.0068263486 0.1134357 -0.04701213 -0.012768986
00000000: cdbf 86bc 90af df3b fa50 e83d cb8f 40bd
00000010: 0235 51bc
